saved_models_equi/best_equi_model.pth (torch, 887378 bytes, 41 tensors)

coord_encoder.weight f4 [128, 2]
00000000: dba0 093f 000a 173f 785f 2bbe e010 2a3f
00000010: ad9a 18be 0bb2 143e c912 b4be 2426 d23e
00000020: 1267 1b3f 2621 03bf 1fca 183f dd97 0a3e
00000030: dcf7 013f b407 e43d 8861 a53e 07e1 d1bd
00000040: b605 043f 0a0d d63d c8c4 a5be d533 363e
00000050: 2035 9fbe 510a c9bd 98b8 90be a53b f43e
00000060: 28d8 0dbf d118 b0be 49f3 46be 3d36 dcbe
00000070: 94eb 843d 8b2d 33bf 557b 213f bfe1 17bf
00000080: 5a6a 073f 1665 fa3d 6769 73be c4ae e63e
00000090: 9607 cc3d e277 173f ca93 a63d 544d 71be
000000a0: 001a 2d3e 6b50 40be e50d 9a3e 323f 233f
000000b0: 7eab c83e f2dd 9dbe 723a d43e 3f9d 133e
000000c0: 4315 b53e c2a7 e3be 7d59 2fbf 2a10 95be
000000d0: beab 09bf 3226 123f 0b72 423e 2f82 9e3e
000000e0: 179a 513e d0d5 44ba fa52 0f3f 2765 03bf
000000f0: 1297 5a3d 98ba ffbe beba 5b3e dd77 6cbe
00000100: 0b32 4c3e a549 09be c7d7 113f 18d4 d4be
00000110: 63d0 d3be a676 dcbe 2720 1e3f 17ad 6e3e
00000120: 6cd9 2a3f 575b 19bf 754c 32bf 0911 12bf
00000130: dbc3 eebe 162e 9a3e 0ab1 723e b4f5 1a3f
00000140: f575 b9be 99c7 f4be b38d c23e 2658 8fbe
00000150: 22ae d23e d1ee 35be e32d ce3e 0661 09bf
00000160: cc3d b7be 7112 523e f429 123e 2f17 4dbe
00000170: cb30 d23e 45cf f43e d9e2 febe ea59 c0be
00000180: 5ee5 233f d797 63be 80be 80be 4ffa 31bf
00000190: 09c5 d2be c328 413e bcfc abbd 6b30 07bf
000001a0: 8dab 243b 4215 fdbe 6ce8 18bf ccd0 cabe
000001b0: 5ca1 1dbf d384 efbe 7b85 333f ec8d 0a3e
000001c0: 7984 5e3e ac82 2abf be89 e6be 2343 6abe
000001d0: 4dfd f83d a9cb 22bf 5fcc 99be c136 debe
000001e0: 13bb b03a 7359 92be 79b0 62bd 2801 f5be
000001f0: f3ce f6be 9bf8 ddbe ff63 75be a273 12bf
00000200: f62d 173f d0ec f6bd e764 193f d3e7 5e3e
00000210: 8266 14bf 89ba f23e 5f7f 3abe 1036 98be
00000220: 6965 15bf 8411 36bf 12ce 503e 81c0 10be
00000230: b2f2 8e3e c851 15bf 3f18 083f 99cd 09bf
00000240: f028 f3bd fa5a 2b3e f720 b93e b41b 163f
00000250: 6c1c 233f 7aaa 0dbf 7586 3e3e f1e3 9abe
00000260: 218a 85bd f0a1 0bbf 29a8 263f b595 03bf
00000270: 219f b73e 7a44 873e eaf9 653e 58d8 ccbe
00000280: f677 233f f0b6 2e3e b370 b73d 7a7e 23bf
00000290: 7a30 953e 660a e6bd b199 a6be 0a17 193f
000002a0: e3fe 193e b545 cbbe 518f afbe bdef 2ebd
000002b0: 56b0 ce3e 14b1 2ebe acf7 cdbe bb3d 85be
000002c0: 3119 06bf 4678 733e 097e 093f e8e6 2cbf
000002d0: c41b 1a3e 17a0 c63e 07cf e53d cec7 89be
000002e0: b399 bc3e aa0e c73e 52e2 833e c5b3 f5bd
000002f0: ed83 36be d029 923d ae55 ecbd 937d 48be
00000300: 428d e53e 84ab 1e3f 0ae5 82bd 9a6f 34be
00000310: b369 903c 4533 42bd a667 2b3e 160e 603e
00000320: 35e2 21bf aefe 8cbe 5d3b 183f cde6 8f3e
00000330: 5575 0ebd bd29 e4be 2a55 dbbe 8510 26bf
00000340: 0724 59be f5c6 6c3e bdb8 eb3e 2544 a53e
00000350: a85c 1ebf 984a debe 2e59 fabd 38a5 343f
00000360: 59ce df3d 026a 4bbe 56ae 983e 911e 8fbe
00000370: fdc4 e3be 87da 063f 7c43 9dbe e1c2 25be
00000380: 9b4c 33bf d45a eb3e 3b8b 053f 7fa9 8d3e
00000390: cdc6 f9be e4b2 34bf 8f6d 10bf 02f6 083f
000003a0: db87 af3e f576 1c3f 7617 bb3e 28f4 473e
000003b0: 0c35 02bc 739d 0dbf ef51 1abf aff9 2abf
000003c0: 5813 963e 26c0 adbe 8cb8 0bbe 4a95 dabe
000003d0: bc8d 09be 7487 ffbe bebd ecbe e3e6 5c3e
000003e0: 944d 4fbe 3208 e53e 2ae1 63be fc48 05bf
000003f0: b4a3 dfbd c74d b3be fcf9 55be bbcf 2ebf
0.5376107 0.58999634 -0.16735637 0.66432 -0.14902754 0.14521043 -0.35170582 0.41044724
0.6070415 -0.51222456 0.5968341 0.13534494 0.5076883 0.11134282 0.32300973 -0.10247999
0.51571214 0.10451706 -0.32376695 0.1779321 -0.3109522 -0.09816421 -0.28265834 0.47701755
-0.55407953 -0.34393933 -0.19428743 -0.4301013 0.064902455 -0.6999137 0.63078815 -0.59328836
0.52896655 0.12226312 -0.23770677 0.4505521 0.099623844 0.591673 0.08133657 -0.23564655
0.1690445 -0.18780677 0.30088726 0.63768303 0.39193338 -0.30833393 0.4145084 0.14415453
0.35367784 -0.44463927 -0.68495923 -0.29113895 -0.5377768 0.5708953 0.18988816 0.30958697
0.20468937 -0.0007508667 0.5598599 -0.5132622 0.053366728 -0.49947047 0.21457955 -0.23092599
0.19940965 -0.13407 0.56969875 -0.41568065 -0.41369924 -0.43059272 0.6176781 0.23308216
0.6673801 -0.59905 -0.69647914 -0.57057244 -0.466338 0.30113286 0.23700348 0.60531163
-0.36222807 -0.4780853 0.37998733 -0.2799694 0.41148478 -0.17766882 0.40269384 -0.5366367
-0.35789335 0.20514847 0.14273816 -0.20028375 0.4105285 0.47814384 -0.49782446 -0.375686
0.6402186 -0.22225891 -0.2514534 -0.69522566 -0.4116595 0.18863206 -0.08397815 -0.52808255
0.0025126666 -0.4943028 -0.5972965 -0.39612424 -0.6157434 -0.46781024 0.7012555 0.13530701
0.21730222 -0.6660564 -0.45026964 -0.22877173 0.12157688 -0.6359201 -0.30038735 -0.4340115
0.0013483487 -0.2858387 -0.05534408 -0.47852445 -0.48204765 -0.43353733 -0.23963927 -0.5720769
0.59054506 -0.12056887 0.5991959 0.21768121 -0.57968915 0.4740794 -0.1821265 -0.29728746
-0.58357865 -0.71120477 0.2039111 -0.14135934 0.27919537 -0.58327913 0.53161997 -0.5382934
-0.118730426 0.16733924 0.36157963 0.5863602 0.63715243 -0.5533825 0.18605979 -0.3025203
-0.065204866 -0.5454397 0.6510034 -0.5140031 0.35863593 0.2641943 0.22458616 -0.40008807
0.6385492 0.17061973 0.089570425 -0.6386486 0.29138547 -0.11232452 -0.32539132 0.5980078
0.15038638 -0.3970162 -0.3428903 -0.0427091 0.4036891 -0.17059737 -0.4022802 -0.2602366
-0.5238219 0.2377635 0.5370794 -0.67539835 0.15049654 0.38794014 0.11221128 -0.2691025
0.36836013 0.38878375 0.25758606 -0.11997179 -0.17823763 0.07136881 -0.115397796 -0.19579153
0.44834334 0.6198046 -0.06391342 -0.17620698 0.017628526 -0.047412176 0.16738757 0.21880373
-0.6323579 -0.27538055 0.5946558 0.28105775 -0.034779865 -0.44563094 -0.42838413 -0.64868957
-0.2120515 0.23122771 0.46039382 0.32278553 -0.6186013 -0.43416286 -0.12224041 0.70564604
0.109280296 -0.19864658 0.29820508 -0.27953008 -0.44486228 0.52677196 -0.3071555 -0.16187622
-0.70038766 0.45967734 0.52165574 0.27668378 -0.48784485 -0.70585465 -0.56417173 0.5350038
0.34283337 0.61119014 0.36541337 0.19526732 -0.007947218 -0.55318373 -0.6028127 -0.66787237
0.29311633 -0.3393566 -0.13644618 -0.42692024 -0.13432974 -0.4990803 -0.46238512 0.21572451
-0.20244437 0.44732815 -0.22253862 -0.5206449 -0.10919896 -0.35020277 -0.20896143 -0.6828572

coord_encoder.bias f4 [128]
00000000: a233 cb3e 2a7c f5be f716 ae3e adf2 9d3e
00000010: 5d21 013f 3c9f 07bf 9378 003f 095b 98be
00000020: 7606 913e f100 2b3f 8ebf cbbd ede5 14bd
00000030: 54a3 17be 4e12 11bf c939 ab3e 75e3 2fbf
00000040: 47f3 e53e 4617 003f 2fe1 283f a0ea 1cbe
00000050: 8019 10bf 742f 383e 6961 c33e d182 2dbf
00000060: f465 13be 38e5 d0be 9ad2 9cbd d76e aebe
00000070: 7702 90be 5cb1 5abe 3fa9 24bf d847 0f3f
00000080: 58cd 0d3f f057 e4bd 585e 9bbd c7c5 8cbe
00000090: 6569 1bbf 9843 2bbf b064 763e 0b0b c3be
000000a0: 279f e3be 39ae 8bbd 8712 69be 8f27 80be
000000b0: 4b8c 103c 30af 0abe ef36 83be 2316 a4be
000000c0: c4f6 10bf 3803 163f f15a 8bbe e1bd 453e
000000d0: 6f2b 6fbe 9999 363d 3623 2b3f 2808 a33e
000000e0: 78dc 13bf 4ca1 883e feb7 2e3f db7c 283e
000000f0: 9980 f33e 658b 2a3f 1046 fabd 64a6 113e
00000100: 25a8 f8be 9abf 0cbe a5ac 013f 3614 b43e
00000110: bdb4 d8be 274b 09bf 56c2 f0be dfd3 29bf
00000120: 6b12 0bbf 1bcf 42be 5c8c ed3e da68 053e
00000130: 9422 04bf 0637 13bf acd5 b13e eec4 fdbe
00000140: 94ac c9bd 0f91 a93e db21 98be a4db d7bd
00000150: 3b27 5fbd ff51 30be 22a3 b1be e74d 1cbf
00000160: e0e5 0dbf d3a0 bbbe f88b 2c3f 959d a7be
00000170: 9ee1 f4be 1f07 323e 9432 383e 3912 c03e
00000180: ec69 033f 8609 c43e 67f8 2bbf 7ac9 703d
00000190: 862b ce3e 849e 7bbd 4f32 cbbe 4409 253f
000001a0: 6d8e 81be 4a28 d3be 5d4f 1bbf 0e8d 763c
000001b0: bc3d a23e 5cad 2f3e 4fec f03d 2e12 04bf
000001c0: 3efb 23bf f055 863c dca7 243f 0d71 ca3e
000001d0: 007e d4be b87b c1bd 9441 01bf 14b7 a2be
000001e0: b3b8 0f3e d6c4 c83e 9387 193f 8fa5 1fbf
000001f0: a180 e33e 3f54 f8be 5fe9 933e 4968 113f
0.3968783 -0.47946292 0.34001896 0.3084921 0.50441533 -0.5297735 0.5018398 -0.29756954
0.28325242 0.6679831 -0.099486455 -0.036352087 -0.14808398 -0.56668556 0.33442524 -0.68706447
0.44912168 0.5003551 0.659686 -0.15323877 -0.5628891 0.17986852 0.38160256 -0.67777735
-0.14394361 -0.4079988 -0.076573566 -0.3406894 -0.2812688 -0.2135672 -0.6432075 0.55969
0.55391455 -0.11149585 -0.07586354 -0.27494642 -0.60707694 -0.66900015 0.24061847 -0.38094363
-0.4445736 -0.0682034 -0.22760974 -0.2503018 0.008822511 -0.13543391 -0.25627849 -0.3204814
-0.56626534 0.5859866 -0.2721782 0.19310714 -0.23356412 0.044580076 0.668506 0.3184216
-0.57758284 0.2668556 0.682495 0.16453879 0.4755905 0.6661895 -0.122203946 0.14223629
-0.48565784 -0.13744965 0.5065406 0.3517167 -0.42325392 -0.536303 -0.47023267 -0.66338915
-0.5432498 -0.19024317 0.46396148 0.13028279 -0.5161526 -0.57505834 0.3473333 -0.49564308
-0.0984737 0.33118483 -0.2971333 -0.1053994 -0.054480772 -0.17218779 -0.34694773 -0.6105637
-0.55428886 -0.36646137 0.67401075 -0.32737413 -0.47828382 0.17385529 0.17988044 0.37513903
0.513335 0.38288516 -0.67175907 0.058785893 0.4026758 -0.06143047 -0.3968682 0.64467263
-0.25303975 -0.41241676 -0.60667974 0.0150482785 0.31687725 0.17155975 0.11763822 -0.5159024
-0.6405524 0.0163984 0.64318633 0.39539376 -0.4150238 -0.094474256 -0.5049069 -0.31780303
0.14035301 0.39212674 0.59972495 -0.62362 0.44434074 -0.48501775 0.28888986 0.5679975

attr_encoder.weight f4 [128, 5]
00000000: 00c8 cd3b 7052 d03e b8f5 c2be cec0 2abe
00000010: 74fa 8d3e 348b c7bd cc7b bbbd 6146 2ebe
00000020: a519 9d3e c30f 563e c4bf 123e baac 80be
00000030: 1a8c c0be c783 093d 0351 ed3d 7f70 53be
00000040: e621 00be 21a4 953e 1b01 d73c 047e 89bb
00000050: e066 e1bd 1d5b cfbe 5b13 d9be 4dbe 5fbe
00000060: 0f54 30be c8ac 0e3e 2e50 05be 9e91 25be
00000070: cc2b d53e e7f4 2d3e 523c a33e a6b2 5dbe
00000080: d48e 40be a18f 0a3e 38bb 86be 4aae 95be
00000090: 10f3 b0bc 75dc edbd b1f3 a2be bcc0 5f3e
000000a0: c221 b83e 5094 943d 14dd 83bd cd60 c9be
000000b0: 3c5b 05be 602c e93d a0ef 573e 69fe 16bd
000000c0: 3316 33be 9de7 363e b45a b6be 1cb7 903e
000000d0: baba 2fbe 3a44 b83c 4051 e6bd 8015 5e3d
000000e0: 0a64 0abe 8382 973e 3aa7 44bc 75bc 9c3e
000000f0: 4627 dc3e 851b 5fbe a932 9dbe abfb ac3e
00000100: 388e 923e fdd4 aebe 689a 0dbd f792 d6be
00000110: f352 b7be 2a6c f13d c8a8 f33d f026 c23d
00000120: fd64 01be 51c5 ce3e c654 8f3d 1b1d 87be
00000130: b068 cfbc d32a 023e 9750 203e dcd0 b6be
00000140: 38a2 2b3e e2f4 69be 8098 b7be 636a 83be
00000150: 5f2d dd3e 5abd c33e c60a cd3e b69f 6a3e
00000160: b966 ae3e 92cb 0dbd 9df9 7bbe ecd0 643e
00000170: 62a5 71be 3618 a2be 07a3 3abe 7035 c03d
00000180: d8bf 6b3e 7162 23be f4f0 79be 76bb 063d
00000190: eaf6 86be 6213 95be ab1c 773e a212 8fbd
000001a0: a5de f33e c6bd de3e 70f9 083e 333a 3b3e
000001b0: 2e5c e03d eed7 31bd f83a 05bd 0069 c93b
000001c0: 6228 193e 2d5c d73e fcbd 88bd d094 41be
000001d0: 14cc ddbd 651e 3dbe e6b7 ca3d 401b 993e
000001e0: 500d b33e 4841 523e 6e6b a0be 5728 69be
000001f0: 9865 cdbd 40d2 a8bd 08a9 163d 8bb2 c8be
00000200: f4dd 053e c535 abbe b6e1 90be 4c5d bebe
00000210: 9fe3 bc3e 6b9c c9be 7899 ad3e e050 76bc
00000220: d808 55bd dc6d 913e c203 17bd 8bdc a33e
00000230: 188d a53e 07cc c6be d8b6 3a3e eff8 873d
00000240: d393 dc3d 70b6 853d 7886 fa3d d3d4 4fbe
00000250: f9df 3bbd 9039 ce3e ecd5 993e 80a2 89bc
00000260: 316a c9be 7db9 0b3d e6db 93be fe32 ba3e
00000270: c001 8bbe cd76 94bd ad49 a9bd 2b6e 1d3e
00000280: 6278 d73e 100e 2e3d f292 603e 7a77 ac3e
00000290: cde6 bd3e 0e27 1ebe 7cd8 ccbd 5823 553e
000002a0: 64de d4bd 0170 783e d817 c8bd 3d4d 9bbe
000002b0: b23d 3a3e 47fd e53d 4523 523e 5a7b e33e
000002c0: e253 9c3e f377 e03e ab15 693d 519e ddbe
000002d0: 8ca1 a0be 743b 8ebe ae8f b8be 4fda 63be
000002e0: 76d5 ccbe 1b41 d3be f6d2 88be 54ee d6be
000002f0: 27e3 98be ce93 403e d2f9 be3e dc38 08be
00000300: 23f4 15be 0a50 5e3e 53e3 77be 3988 58be
00000310: c613 8d3e b26d c2be 7baf cc3c e097 d73e
00000320: 3810 9d3d 5012 f93d 41d1 80be dcd6 013c
00000330: 482c 7b3c a8ca e03d f0ee 313e 712a bf3e
00000340: 4efb a8be f954 963c 8ace 64be ef21 b5be
00000350: 240b f3bc ec55 bdbe 2fe3 9a3e e825 543d
00000360: 68d0 76be 9c82 4e3e af7e c8be d9d8 11be
00000370: e86e b2bd f791 c2be 5b39 95be 2769 a9bd
00000380: 8194 973e ee1b dd3e e8af 913e af50 7ebe
00000390: b55c 95be 5cb3 bd3e d8fb 213e 60aa 423c
000003a0: a278 373d 1ebf aebe 1e53 2fbe f669 dc3e
000003b0: 8ce3 e1bd d501 47bb 32bc bdbe e79e 84be
000003c0: 009e 15bc 9d3a 8ebe c0ab 1fbd 75a5 1c3e
000003d0: 3de8 eebe 0404 083e 2866 97be 8abc 65be
000003e0: 07b7 3b3e e404 b93e 5452 fabd ce04 3cbe
000003f0: 4835 c6be 0694 7cbe d03f d4be f89e d1bd
0.0062799454 0.40687895 -0.38078094 -0.16675112 0.27730143 -0.09743348 -0.09154472 -0.17019035
0.30683628 0.2090445 0.14330965 -0.2513178 -0.3760689 0.03357294 0.115877174 -0.20648383
-0.12512931 0.29226783 0.026245644 -0.0041959304 -0.1100595 -0.404992 -0.4239758 -0.21849938
-0.17219566 0.13933098 -0.13018867 -0.1616883 0.41634977 0.16987954 0.31881958 -0.2165018
-0.18804485 0.13531353 -0.26314712 -0.29234535 -0.021600276 -0.116143145 -0.31826547 0.21850866
0.35963255 0.07254851 -0.06438652 -0.39331666 -0.13023084 0.11385417 0.21087503 -0.03686372
-0.17488937 0.17861791 -0.35616076 0.282647 -0.17161074 0.02249347 -0.11245966 0.054219723
-0.13514724 0.2959176 -0.012002761 0.3061253 0.42998713 -0.21787842 -0.30702713 0.33785757
0.2862413 -0.34146872 -0.03457108 -0.41909 -0.35805473 0.11788209 0.11897427 0.09480083
-0.1263618 0.40384915 0.06998591 -0.26389393 -0.025318474 0.12711649 0.15655743 -0.35706222
0.167611 -0.22847322 -0.35858536 -0.25667104 0.43198678 0.382304 0.40047282 0.22912487
0.34062746 -0.034617968 -0.24606939 0.22345322 -0.23598245 -0.31659096 -0.18226252 0.093851924
0.23022401 -0.15955521 -0.24408323 0.03289362 -0.26360255 -0.2911635 0.2413203 -0.06985976
0.47630802 0.4350416 0.13376403 0.1828392 0.10955082 -0.043418817 -0.03252694 0.00614655
0.14956811 0.42062512 -0.06676862 -0.18904424 -0.108299404 -0.18468626 0.09898357 0.29903603
0.34971094 0.20532715 -0.31331962 -0.22769295 -0.10029143 -0.08243227 0.036782295 -0.39198717
0.1307295 -0.3343946 -0.28297204 -0.37180555 0.3689241 -0.3937715 0.3390615 -0.015033931
-0.052010387 0.2840413 -0.036868818 0.32004198 0.32334208 -0.38827536 0.18233812 0.06639277
0.10770383 0.06528938 0.12232679 -0.2029603 -0.045867894 0.40278292 0.30046022 -0.016801119
-0.3933883 0.034112442 -0.28878707 0.3636703 -0.27149773 -0.07249222 -0.08266006 0.15374057
0.42084032 0.04249388 0.21931055 0.33684903 0.3709015 -0.15444586 -0.100022286 0.20814264
-0.1039398 0.24261476 -0.09770173 -0.30332366 0.18187597 0.112299494 0.20521267 0.44430047
0.30532748 0.43841514 0.05690543 -0.43284848 -0.3137325 -0.27779734 -0.3604712 -0.22251247
-0.40006608 -0.4126061 -0.2672345 -0.41978705 -0.29860803 0.18806383 0.37299973 -0.1330294
-0.14643912 0.2171022 -0.24207811 -0.21145715 0.27554148 -0.37974316 0.02498602 0.4210806
0.07669109 0.12161696 -0.25159648 0.007924762 0.015330382 0.109761536 0.17376304 0.37337068
-0.3300423 0.018351065 -0.22344413 -0.35377452 -0.029668398 -0.36979616 0.30251452 0.051793963
-0.24102938 0.20167011 -0.39159152 -0.14242877 -0.0871256 -0.38001987 -0.2914532 -0.08272009
0.29605487 0.4318537 0.28454518 -0.24835466 -0.29172292 0.37050903 0.15818727 0.011881441
0.04479278 -0.34130186 -0.1712155 0.43049592 -0.11029729 -0.0030366082 -0.37057644 -0.25902483
-0.009131908 -0.27779093 -0.038982153 0.15297492 -0.4666156 0.13282782 -0.29570127 -0.22435203
0.18331538 0.36136544 -0.12222734 -0.18361208 -0.38712525 -0.24665841 -0.41454935 -0.10235399

attr_encoder.bias f4 [128]
00000000: bb2d 803e a5fa 5cbd b5bd 323e 91bf 8cbe
00000010: 9c9d 893d c809 84be d80d 5e3e c9b2 22be
00000020: bcee babd 31a7 c4be 69dd e03a d597 c93e
00000030: 1458 6d3e a706 5cbe 6fca 8f3a dcd8 0bbd
00000040: d124 b3be f5d4 a43e b17d eeba f9a3 dc3d
00000050: bc65 26be 22e4 40be 168b 843d 10f2 433e
00000060: 0e58 ef3d 9371 4cbe ffc4 d63e 9e82 6fbd
00000070: 283f 88be f803 4bbe eb21 f03e f7b6 a7bc
00000080: 92f1 cbbd 8e2a 3fbe 048c e6bd 83dd b9be
00000090: 7bd7 a5be 82cd 8f3e 5e84 b83e ff3d de3e
000000a0: 512e a0be 6557 6a3e 24b3 89be 7123 7b3e
000000b0: e919 9e3e 92a5 b83e f34f 9e3e d97f 983e
000000c0: 7ea9 923c f852 4b3e 8bc8 18be 3148 4d3e
000000d0: dd1f 07be 3e08 a7bc e88b c2be 698d febd
000000e0: 34c8 4cbe 789a 28be c571 8cbe 6ff3 d8be
000000f0: 5714 fb3c 14c2 843e 9c71 c93e df4c 833e
00000100: e66c 67be 2639 debe ff29 1c3e 5e8e 753e
00000110: 3530 b8be c2aa 433e 9a3c c83e ad06 7c3d
00000120: 73ba 88be 54db b33e dafb 353e 6ebb 9d3e
00000130: adc0 8fbe 9c41 813e 20ad 9ebe fd18 f23e
00000140: 22b7 4dbe c5dd 853e b317 f53d 1cc5 b83d
00000150: 86f5 7bbd 4914 373e d000 33be 37b3 cdbe
00000160: 9539 1ebe 9aa3 b93e c2b7 01be 3273 1e3e
00000170: e3d6 2cbe 9d05 ad3e 225b 813e 2613 153e
00000180: 8c68 81be 79ac c0be 0b22 3d3d c356 88be
00000190: da1f af3e 6807 dabe beee 603e 7c31 d53e
000001a0: 9d10 713e b015 123e 5487 ccbe e2c7 d33e
000001b0: 5a6c 95bd e841 cebe f8ab d63e 9581 25be
000001c0: 48e5 41bc 3c98 d33e 3588 9fbe 2e6c a8be
000001d0: 5223 8e3d a618 80bd 8479 f43d b319 b4be
000001e0: 624d d23c 206d 44be 64d0 52be 878f c4be
000001f0: 24b0 553e 1c7d cc3d 773e b5be 9e24 a63e
0.2503489 -0.05394997 0.1745518 -0.27489904 0.06719515 -0.25788713 0.21684968 -0.15888514
-0.09127566 -0.38408807 0.0017155829 0.3937365 0.2317813 -0.21486913 0.0010970364 -0.03414236
-0.34989026 0.32193723 -0.0018195418 0.10773463 -0.16249746 -0.18837026 0.06471841 0.19135308
0.11686717 -0.199652 0.4194717 -0.058474176 -0.26610684 -0.19825733 0.46900877 -0.020472987
-0.09958185 -0.18668577 -0.112571746 -0.36301813 -0.3239096 0.28086478 0.36038488 0.43406674
-0.31285337 0.22884901 -0.26894486 0.24525239 0.30879143 0.3606382 0.3092037 0.2978504
0.017903086 0.19855869 -0.14920251 0.2004707 -0.13195749 -0.020389672 -0.37997365 -0.124293156
-0.19998246 -0.16465175 -0.2743055 -0.42373225 0.030649347 0.2592932 0.3934449 0.25644585
-0.22600135 -0.43402976 0.15250395 0.2398009 -0.3597428 0.19108108 0.39108735 0.061529804
-0.2670475 0.35128272 0.17771855 0.3080706 -0.28076687 0.25245368 -0.3099146 0.4728469
-0.20089391 0.2614576 0.11967411 0.09021971 -0.061513446 0.17878832 -0.17480779 -0.40175793
-0.15451653 0.3625763 -0.12667754 0.15473631 -0.16878848 0.33793345 0.2526484 0.14558086
-0.25275075 -0.37631586 0.046175044 -0.26628694 0.34203988 -0.42583776 0.21966073 0.41639316
0.23541494 0.14266086 -0.39946997 0.41363436 -0.07296057 -0.40284657 0.41928077 -0.16162713
-0.01183445 0.41327083 -0.31158605 -0.32895035 0.069403306 -0.06254701 0.1193724 -0.35175857
0.025671665 -0.19182253 -0.20587307 -0.38390753 0.20867974 0.099848 -0.3539922 0.32449812

blocks.0.to_q.weight f4 [128, 128]
00000000: c18a c13c c9f9 743b 3f55 82bd be23 9e3a
00000010: 0b28 c73d d05c 753d d484 92bd 8def b83d
00000020: 06cd 823b 9155 fc3c 7d32 923d 4483 813d
00000030: 7b43 87bd d153 a43d 7b00 42bd 9686 983c
00000040: 3844 80bd 3808 ffbc 3489 7cbc 819d ca3a
00000050: 15d3 12bb 7168 b339 6d6b cb3d e87e 4e3d
00000060: b516 7c3d b0b4 1b3d e3ad 663d 2f64 0fbc
00000070: 0552 0f3c 1ad4 f63c c516 85bd 4624 71bd
00000080: fbb2 a93c 9fde b9bc efbc d03a 736c bdbc
00000090: ee85 d13c 878b 763d 937e 27bd 6cfa 7b3d
000000a0: b860 943d 98c3 64bd e358 6bbd 05be 72bd
000000b0: ec78 76bd a07b b6bc 9d2c 24bc 440c 99bc
000000c0: f816 0abd dd1b 89bc d137 28bd 30ec ca3d
000000d0: e847 a8bc 3d59 77bd d5ef 223d feac 03bc
000000e0: 358a a33d c853 6e3d 8619 c03d fac4 79bd
000000f0: 3d67 8e3d c332 af3d c6cb 24bd 4e76 b83d
00000100: cfc7 993d 0930 3539 d96d fb3c e6af d1bc
00000110: 66de 97bd 5c73 093d 6f21 1e3d 0572 3bbd
00000120: 314c 043d 9ad9 a2bd 43b6 b43d 94c0 c83d
00000130: 6aa9 0f3d 8e43 32bd a72a 243d 0ef7 df3c
00000140: ebb6 ad3c 6279 2b3d 3fa1 9f3d a136 4ebd
00000150: 9c5f f5bb 1982 cc3c 7700 ac3c 32c8 963d
00000160: d1cd 6dbd a09b 123c e913 1f3c bf7a 3dbc
00000170: e47f 673d d7d1 ab3c e3a1 bbbd b483 3fbb
00000180: 2061 31bd 1374 aa3c ad87 69bb c895 babd
00000190: a651 77bc ef0b 1abc 7faf 65bc f4c9 b23d
000001a0: 6327 01bd 8cc3 5c3d facf c73c 23f5 b1bd
000001b0: 0074 083d 7844 ae3d 8118 8fbd 8cb1 60bd
000001c0: 10b5 983d b614 8c3d 8994 39bd 7d31 283d
000001d0: 152d 8abc e335 b8bd d2dc 983c dcd1 003d
000001e0: 738a 6abc 4427 2d3d 84c2 81bd 4a2f 543d
000001f0: 0e87 813d 1734 5d3d 4cdc bd3c f7d8 273d
00000200: 3f5b 85bd 5e6f 12bd aeff a6bc 11d5 7bbd
00000210: f750 6fbd 386d 683d 35d5 6f3d 2eab 9ebd
00000220: aed9 d63c 7db5 fc3c c741 af3d 21fa 1c3d
00000230: 802d aa3d ba5a eebc 8679 993d 743b aa3d
00000240: a561 afbd 9a46 aabd 3a41 063c a079 793d
00000250: 4aab 01bd bbc2 003c cdda 833b 13a5 9e3c
00000260: 14f3 0fbd 1783 523d 856e 3f3d e2e1 7ebd
00000270: 5a58 273a 4795 363c a3b4 243d 0f1b b53d
00000280: 9795 e93c c9ba 5ebc 7d6f a53d 0baf 12bd
00000290: cf79 64bc ce89 f33b 82a7 98bd 7255 733b
000002a0: 2f4f 73bd c358 623c 96d2 423c d427 c63c
000002b0: bec9 a3bd 0023 94bd 1b9a 213d e690 9e3d
000002c0: d8e3 9abd 1ee3 2a3d ec31 89bd 78af 873c
000002d0: 5bbd c03d a52d 8d3d 7c8a 80bd 6f76 583d
000002e0: 2c33 713d 7ff0 0d3b 6ca3 ca3d 6237 0dbd
000002f0: 99bd 00bc b31a fbbc 3c0a 733c d290 e83c
00000300: aa06 0b3c 5fbd 54bd a001 4ebd 72e2 063d
00000310: 70ff 9cbd d2a3 0fbb 67bf 353c 0c05 c7bc
00000320: d63d e73c 5ae6 a83b a738 8b3d b5c0 8b3b
00000330: 4571 3dbd a8c3 903d c338 2a3c 9b02 4abc
00000340: b0a7 76bd e806 0d3d 6fa1 a5bd 48da 253c
00000350: e431 693d 10f4 9abd ee54 5dbd e507 7fbd
00000360: ff2f 933d fe32 b23d 5c97 423b 790c c33d
00000370: f932 01bd e753 abbd 3e8b a83c e30b 083d
00000380: 0c0d b03d ffbe 343c ef74 9a3d 9e43 593d
00000390: 29eb 883d 699b b8bd 66b8 ab3d a290 96bd
000003a0: 26da 933d 1030 b1bb d39d 9dbd 3dd4 463c
000003b0: e95b b8bb 2394 8abd c3e8 34bd ba4a 283c
000003c0: cad2 853d 2039 ecbc 905a 5a3d 7ca1 0d3b
000003d0: 65fe 023b 1586 753c ec9a 3fbd d942 94bd
000003e0: d18d 83bc d150 95bd b01a fbbc b70b f23a
000003f0: 9558 91bd eb62 12bd d1d9 3cbc c05b ecb8
0.023625733 0.003738033 -0.06363916 0.0012065095 0.097244345 0.059902966 -0.07154241 0.09030066
0.003991726 0.03080252 0.07138536 0.06323865 -0.06604668 0.08023799 -0.04736374 0.018618863
-0.06263012 -0.031131849 -0.015413571 0.0015458317 -0.0022403647 0.00034219355 0.09932599 0.050413996
0.061545093 0.038014114 0.056318175 -0.008751913 0.008747582 0.030130435 -0.064984836 -0.058872484
0.020715227 -0.022689162 0.0015925447 -0.023123002 0.025576558 0.060191657 -0.040892195 0.061518118
0.0724501 -0.055850595 -0.057457816 -0.059263248 -0.060173914 -0.022275746 -0.010020402 -0.018682607
-0.03371331 -0.016736919 -0.041068856 0.099083304 -0.0205421 -0.06038784 0.039779503 -0.00803685
0.07985345 0.05818537 0.09379868 -0.060978867 0.06953285 0.08554604 -0.040233396 0.0900694
0.075088136 0.000172794 0.030692028 -0.02559657 -0.07415466 0.03355728 0.038606104 -0.045763034
0.032299224 -0.079516605 0.08823826 0.09802356 0.035073675 -0.043521456 0.04007974 0.027339485
0.021205386 0.041863807 0.07794427 -0.050345067 -0.007488204 0.02496438 0.020996315 0.07362403
-0.05805761 0.008948237 0.009709337 -0.0115649095 0.05651845 0.020974083 -0.09161737 -0.0029222788
-0.043305516 0.020807302 -0.0035633848 -0.091106 -0.01509515 -0.009402259 -0.014018892 0.08729926
-0.031531703 0.053897426 0.024391163 -0.08689334 0.03331375 0.08509153 -0.069870956 -0.054856822
0.0745641 0.06839888 -0.04530767 0.04106282 -0.0168672 -0.08994653 0.018659983 0.031450137
-0.014315235 0.042273775 -0.06335929 0.05180291 0.06324588 0.054004755 0.023176335 0.0409784
-0.065115444 -0.03575074 -0.02038559 -0.061482493 -0.058426823 0.056744784 0.05855294 -0.07747494
0.026226845 0.03084826 0.08557468 0.03832448 0.0830946 -0.029095996 0.07493882 0.08312121
-0.08563546 -0.083142474 0.008194262 0.060907006 -0.031657495 0.007858927 0.004023886 0.019365823
-0.035143927 0.05139455 0.04673626 -0.062227137 0.000638371 0.011143989 0.04021133 0.08843052
0.028513713 -0.013594338 0.08077905 -0.035811465 -0.013945057 0.007432199 -0.074538246 0.0037129787
-0.059401687 0.013815108 0.011891028 0.024188913 -0.07997464 -0.07233238 0.039453607 0.07742481
-0.07562989 0.041720502 -0.06698975 0.016563162 0.09411117 0.06893472 -0.06276414 0.052847322
0.058886692 0.002165824 0.098944515 -0.034476645 -0.007857704 -0.03065238 0.014833983 0.028389368
0.008485476 -0.05193841 -0.05029452 0.0329308 -0.07665908 -0.0021917713 0.011092997 -0.024294399
0.028227728 0.005154413 0.06797915 0.004264916 -0.0462506 0.070685685 0.01038951 -0.012329723
-0.060218513 0.034430414 -0.08087432 0.010122843 0.056932345 -0.075660825 -0.054036073 -0.06226339
0.07186889 0.08701132 0.0029692268 0.09523863 -0.031542752 -0.083656125 0.020574208 0.03321446
0.085962385 0.011031865 0.075418346 0.053043 0.06685478 -0.09014017 0.083847806 -0.07351805
0.07219343 -0.005407341 -0.07696118 0.0121355625 -0.005626191 -0.06766536 -0.04416729 0.010271722
0.065343454 -0.028835833 0.053309023 0.0021611145 0.0019988057 0.014985581 -0.046778604 -0.07239313
-0.016058834 -0.07290805 -0.030652374 0.0018466626 -0.07096974 -0.035738867 -0.011526541 -0.00011270447

blocks.0.to_q.bias f4 [128]
00000000: 8ed9 9dbd 0479 323d ddd0 b63b db5c c9bc
00000010: 90c4 49bd 6b41 e93c d194 81bc 4b22 aa3c
00000020: 030a e4bc 8545 0f3c c1a2 b3bc 01e9 b7bd
00000030: 1db9 883c bb33 bfbc 15bc 11bd 6e9a 3a3d
00000040: e517 2bbd 1614 3abc 088a b4bd 63c1 18bd
00000050: 46d2 753d 56b7 923b 8f0b 2f3d 0bc6 943d
00000060: 437f db3c d77e 643d 3834 753c 42dd 8b3d
00000070: 92c4 9cbd b1ea 803d 17c8 023d f8c6 a03c
00000080: cd81 c6bd 2fd9 4c3d ef0e 6b3d ebd6 77bd
00000090: 7316 883d 4fe5 b63d 8b1c 34bc 9f5a 22bd
000000a0: 0de0 9cbc a495 8abd d4b3 abbd c14d 15bc
000000b0: 34b7 e4bc 0fd2 b53d c903 403d b5f5 c1bc
000000c0: 8256 9cbd aa7a c03c d90b 5abc 5273 2cbd
000000d0: 5887 9e3d 0379 643d 9704 04bd 6958 9c3d
000000e0: 0b95 9ebd 2c27 83bd 01a3 063d 7f9b 2e3d
000000f0: d172 85bc 9279 a2bc 62db abbd d0d5 1f3d
00000100: b654 b1bb 79d8 90bd 61ed 93bd a418 613d
00000110: cc45 9bbd 9075 8b3c 18b0 993d e097 bfbc
00000120: 1d7f 403d 147f 053d db3a 69bc 65a9 82bd
00000130: b21e 1ebd 0bfc c8bd 578b 7a3c 54c9 803c
00000140: 8224 b6bc 25e1 623d d4f2 76bc 3a7e d03c
00000150: fbf6 c53d dcce 9c3d 978d a43d 56d1 2ebd
00000160: e8ab 813c bee4 acbc 4550 c33c e9bf 2d3d
00000170: 8c4d e73b fd51 18bd 414c 9b3b 2cd9 83bd
00000180: d359 aabd 96d8 60bc d22f 56bb 1c0f e0bb
00000190: 7f83 1e3d d7a9 313d bfe9 003d 44c1 f03c
000001a0: cd28 9bbb 4972 6d3c 2f62 81bd 7090 87bd
000001b0: bc19 353c 7a8c 613d a79c 1e3c c5d7 b73d
000001c0: f0eb 893d db9a cabd 21b4 05bd 7a02 0a3d
000001d0: cda3 eabb 2e8e e83c 6814 38bd 6dc4 473d
000001e0: 5711 3ebd c52c 923b b87b 95bd ab9e c6bc
000001f0: 762d 823d 0cf7 2c3d a87c 6abd 0da6 593d
-0.07707511 0.04357244 0.0055790977 -0.02458041 -0.049259722 0.028473577 -0.015818032 0.020768305
-0.027836805 0.008744602 -0.021928193 -0.08979989 0.016689831 -0.023340097 -0.03557976 0.045557432
-0.041770834 -0.011357328 -0.0881539 -0.037293803 0.060014986 0.0044774218 0.042735633 0.07264336
0.026794082 0.055785026 0.014966063 0.06829311 -0.0765468 0.06294764 0.0319291 0.019626126
-0.09692726 0.05001181 0.05738729 -0.060507696 0.06644907 0.08930456 -0.010993133 -0.039637204
-0.019149804 -0.06766823 -0.08383909 -0.009112776 -0.02791939 0.08877956 0.04687861 -0.023676733
-0.076336876 0.02349599 -0.013308489 -0.042102166 0.077406585 0.05577947 -0.03223094 0.076340504
-0.077432714 -0.06403956 0.032870296 0.04262876 -0.0162901 -0.01983336 -0.08391453 0.039022267
-0.0054117097 -0.07072539 -0.07223011 0.05495514 -0.07581672 0.017023832 0.0750429 -0.02338785
0.046996225 0.032591894 -0.014235224 -0.06379966 -0.038603492 -0.098136984 0.01529201 0.015721
-0.022234205 0.055390496 -0.015072543 0.025450815 0.096662484 0.07656643 0.080348186 -0.042680107
0.015829042 -0.021105167 0.023841986 0.042419348 0.007058805 -0.037187565 0.004739315 -0.064379066
-0.08317914 -0.013723513 -0.0032682312 -0.0068377387 0.038699623 0.043374863 0.031472918 0.029389031
-0.0047350884 0.01449258 -0.06317555 -0.06619346 0.011053499 0.05506561 0.0096809035 0.08976702
0.06734455 -0.098928176 -0.032642487 0.033693768 -0.00716064 0.028388109 -0.044941336 0.04877131
-0.046403255 0.0044609034 -0.07298988 -0.02424558 0.06356327 0.04222779 -0.057247788 0.053136874

blocks.0.to_k.weight f4 [128, 128]
00000000: eb91 02bd e922 a6bd 68dc a33d 6282 ca3c
00000010: ea4f 073c 7fbb ae3c d4e0 043d 6f8f a8bd
00000020: b0b5 343d a38f 883d 2c38 9c3c 3d3c 0dbd
00000030: b6aa d73c 3b52 d33c 2989 023d f718 60bd
00000040: 68b6 483d e3ea a6bb 57f2 5fbc aeec a6bc
00000050: a539 a03d 3c28 aabd 87fc 00bd 11b4 8bbd
00000060: 23d6 923d 4725 cfbc 968b 9bba 8724 d4bc
00000070: c01b 803d 3eac 99bd dc8c eabc 0909 a9bd
00000080: 33d7 acbc d590 9fbd dde6 883c ec21 c93c
00000090: c17d 003c 17ee cf3c 8dea 86bc cd2d aabd
000000a0: 1d50 c13b 7eeb 8f3d ef2b 6a3c 3b39 bd3c
000000b0: 3e9c c7bc 535b 853d a275 223d f122 103d
000000c0: 8b9b 753d 9e82 d73c 4033 813b cc61 303d
000000d0: 4e35 8abd 297c 913d 3d18 f4bc b04a 37bd
000000e0: 2971 ec3b 6622 5ebd dbc3 2fbd dfbb ba3d
000000f0: a949 573b 914b 503d f99c 103d 93bb d93d
00000100: d205 36bd 0fa8 5fbd 28da af3d b7e5 1fbd
00000110: f5bb 8abd c847 8dbc 10d4 793d 280b 263d
00000120: e2e4 84bd 4fb4 b4bd 1c6c e23c 52ac 45bd
00000130: 6769 8a3d e7ba aebc e496 51bd 9f31 cbbb
00000140: 4551 843d 1166 16bd 43cd 8fbd 4563 d03c
00000150: b15d 493d 59cb 3cbc 4f68 503d 60f9 e4bb
00000160: ca47 0ebd e770 7cbd 50e1 82bd 7789 1cbd
00000170: 8942 a03b 25c7 97bc fd51 873d c11e bebc
00000180: 8ca7 023d 400c bb3d f5b5 f6bb ed24 8dbd
00000190: e88c 5e3d 2975 c3bd f1fc 9c3d 6849 b33d
000001a0: 2894 e8bb bf46 90bd 768b d83c f5bf 433d
000001b0: 73ea b23c 4dd1 873c ea45 0d3d e949 7d3d
000001c0: 83b5 ad3c d894 77bd d124 b53c 77bb 19bd
000001d0: 7cf2 c93c 4d62 6bbd 8cd6 c23d 63ba 653d
000001e0: 5235 aabd fdf8 8fbc b039 c13b 99ca d7bc
000001f0: 2cc6 65bc 1a44 e2bc 5219 a73d 0a5a 743d
00000200: 251c 8abc 9918 57bd 4d43 a3bd 9f97 83bd
00000210: b381 19bd ca33 b63d 6a0e bf3b beec 3fbd
00000220: 93fe 21ba cfb7 13bc 6ef5 883c f5d7 723c
00000230: 5d92 683d ba58 06bd 0268 bbbb ac67 82bd
00000240: 9b8e d4bc abf9 bbbd 90f3 a4bc ee02 21bd
00000250: 33df 8fbc a543 923d 3a18 b93d 3148 823c
00000260: 29e3 6e3d b80b 5e3d 9c52 13bc b1ed eb3b
00000270: 83f5 843a 5bbb 6fbd 25b5 ab3d 4806 57bd
00000280: 0b27 8dbc 60e3 82bd 4e90 35bd 828b bb3d
00000290: 23bc 5b3b 603b 073d 3739 6a3c 6761 6b3d
000002a0: 700d e73c fe96 5b3c 356f 1abd b491 f43c
000002b0: 52d6 453c f37d 42bd c72b 95bd fa86 09bd
000002c0: 7a96 a13d f54f 403d 3c87 3e3d 062f 923d
000002d0: 6728 493c f61a 68bd 9fdf b63d cc6f aa3c
000002e0: ac45 91bc 507c 0f3d d1f1 45bd 57ff 593c
000002f0: b9ec c23d 1f4e 2b3d 5b72 9cbd 296f b53d
00000300: 8233 bb3c 231f a3bc 6248 6f3d 04be 4b3d
00000310: 9b1f 793d e0f4 5a3d b5ec 10bd a47d 52bd
00000320: 9236 4d3d f797 82bc 1ac3 aa3d e622 6d3d
00000330: d19a 94bd 6fc2 723d 20c1 263d a8a1 91bd
00000340: 919d 2f3c 36bb 69bd bbaa 3d3d 400d 073d
00000350: a7c9 273d cc4d 473d bb18 3cbd 3487 9bba
00000360: 2924 e1bc 07c0 a53d 89e5 523d 7cf8 8bbc
00000370: 7eb1 a9bd fffe 5639 00c0 873d 619d 07bc
00000380: ce05 ba3c e2ab 56bd 0c1e 37bd ce5d aebd
00000390: 893f a1bd 524b 0cbd 99ec cabc c30d 363d
000003a0: e922 763d 9772 e63b 8eae 1e3d 35b4 8fbd
000003b0: 83d0 c6bc a55c 90bd 6a9f 8e3d eab5 083c
000003c0: 4721 07bd f340 a4bd 0c4a da3c d738 cabd
000003d0: e2f7 463d 1fd3 a7bd 96ab 023d 9eb1 813d
000003e0: c511 6ebd ce74 9d3d 3baa c63d a32e 6c3d
000003f0: 0086 873d 5ef4 f4bc 9c04 71bb 98e7 ba3d
-0.03187744 -0.08112127 0.080010235 0.024720374 0.008258799 0.02132964 0.032440975 -0.08230483
0.044118583 0.066680215 0.019069754 -0.034481276 0.026326519 0.025796046 0.031869087 -0.05471131
0.04900208 -0.0050939186 -0.013668618 -0.02037653 0.07823495 -0.08308455 -0.03149083 -0.06821454
0.071697496 -0.02528633 -0.0011867161 -0.025896324 0.06255293 -0.07503556 -0.02863162 -0.082536764
-0.021098709 -0.077912964 0.016711647 0.024552308 0.007842482 0.025382085 -0.016469264 -0.08309517
0.005899443 0.070273384 0.014292701 0.023098579 -0.024366494 0.06511559 0.039662965 0.035189573
0.05996279 0.0263074 0.003942877 0.043062016 -0.06748448 0.0710376 -0.029796714 -0.044748962
0.007215638 -0.054232024 -0.04291139 0.09117865 0.0032850301 0.050853316 0.03530595 0.1063148
-0.044439144 -0.054603633 0.08586532 -0.039037433 -0.06774131 -0.017246142 0.060993254 0.040537983
-0.064889684 -0.08823454 0.027639441 -0.04826004 0.06758385 -0.021329356 -0.05116929 -0.0062009837
0.064608134 -0.03671843 -0.070215724 0.02543796 0.049161617 -0.011523091 0.050880726 -0.0069877356
-0.034736432 -0.06163111 -0.06390631 -0.038217034 0.004890744 -0.018527577 0.06607435 -0.023208024
0.031898066 0.09133196 -0.007529015 -0.06891809 0.054333597 -0.09543831 0.07665432 0.087542355
-0.0070977397 -0.07044744 0.026433688 0.047790486 0.02184031 0.016579295 0.034490503 0.061838064
0.021204716 -0.060444683 0.022112282 -0.037532296 0.024651758 -0.057466794 0.09513578 0.056085955
-0.08310951 -0.017574782 0.0058967695 -0.026341723 -0.014024299 -0.027620364 0.08159126 0.05965618
-0.016859123 -0.052513693 -0.07971821 -0.06425404 -0.037477206 0.08896597 0.0058305757 -0.046856634
-0.0006179597 -0.009015991 0.016718592 0.014821996 0.056780208 -0.03279946 -0.005719186 -0.0636743
-0.025946906 -0.0917848 -0.02013567 -0.039309435 -0.017562484 0.071418084 0.09037824 0.015903564
0.058322106 0.054210395 -0.008991864 0.007199966 0.0010143969 -0.058528285 0.0838416 -0.052496225
-0.017230531 -0.063910246 -0.044327073 0.091574684 0.0033528886 0.03301561 0.014295868 0.057465937
0.02820465 0.013402699 -0.03770371 0.029854633 0.012075024 -0.047483396 -0.072837405 -0.03357599
0.07890029 0.046951253 0.04651569 0.07137875 0.012277699 -0.056666337 0.08929371 0.020805262
-0.017733417 0.035030663 -0.048326317 0.013305507 0.095178075 0.04182255 -0.07638999 0.08859093
0.02285171 -0.019912308 0.05841864 0.04974176 0.060821157 0.053456187 -0.03538199 -0.05138935
0.05010087 -0.015941603 0.08337994 0.05789461 -0.072560914 0.059267458 0.040711522 -0.071109116
0.010718719 -0.057063304 0.0463054 0.03297162 0.040963795 0.048658177 -0.045922022 -0.0011865855
-0.027483063 0.08093267 0.051488433 -0.01708626 -0.08285807 0.00020503624 0.06628418 -0.008277268
0.022707846 -0.052410014 -0.04470639 -0.085139856 -0.078734465 -0.03425152 -0.024771022 0.044446718
0.060091887 0.007032703 0.038740687 -0.07016794 -0.024269348 -0.070489205 0.069639996 0.008344153
-0.03299072 -0.080202006 0.026646636 -0.098741226 0.048576243 -0.08194565 0.03190192 0.06332706
-0.058122415 0.07688294 0.09700438 0.057661664 0.06617355 -0.02990168 -0.003677643 0.09126204

blocks.0.to_k.bias f4 [128]
00000000: 84d9 a1bd f99f 7d3d 5397 60bd 01ba 76bd
00000010: 806a 183c 6703 acbd f3c0 09b9 cfb0 bdbc
00000020: 5ead efbc 5372 b1bd 2958 81bd 9bfa 7d3d
00000030: 8051 6ebd 7b51 393d 3670 953d ff79 143b
00000040: 7b0a 5a3d de73 85bd 6cbc 82bd 7866 773d
00000050: f058 543d 7737 743c a583 65bd ac0b 22bd
00000060: 9d43 9e3d 07c4 b83d 1bf7 8bbd adc1 0c3d
00000070: 49f6 60bd 2a0b 31bc 26fb bcbb 8ac9 93bd
00000080: 292e c43a 0549 bbbc 8825 8f3d 7c21 38bd
00000090: 2caa 89bd ae7f 2a3c 4f3c b63d 7dc0 a33d
000000a0: 60ce 193d 2f40 b2bd 5455 573d 0cdf a2bc
000000b0: 6e41 93bd 0593 16bd a625 a6bd 811b 20bd
000000c0: 4504 083d 0b51 983d 46ba 8ebd cb83 033d
000000d0: 662c d53c 85bc 6abd 46b6 c7bc 9ce1 82bd
000000e0: 2a7d 77bd 9dd5 8a3d 1912 af3d b408 113d
000000f0: 80b8 a2bc 7a69 21bd 735d cb3c d36a acbd
00000100: d6e7 7dbd c57a 2c3d f4cc 793d 349c debb
00000110: a16e 28bd 5b81 263d 3ab3 6d3d 7667 b5bd
00000120: 1547 84bc 92c4 a9bd c838 54bc f428 983d
00000130: 5bc9 a1bd 30e2 75bd 7352 77bc eb5c 003d
00000140: a22d a73d 2558 103d f30f 853d 0f61 9c3d
00000150: 1803 513d b89a 40bd c996 65bd 73aa 6d3d
00000160: 7c32 74bc 5ed7 90bd 6e59 dc3c 7f12 83bd
00000170: 62fa a03c 0850 b23d acf9 9e3d ba98 5ebb
00000180: 7cea f13b 64b1 343c 9c44 0fbd 5b10 69bd
00000190: cb8d a83d 103a a5bd abcc 833c ffed 24bd
000001a0: 2114 fa3c d327 3bbd 04cf 473d 358c 54bd
000001b0: b318 35bd be56 8e3d f240 e83a 56f7 993d
000001c0: 5489 72bd a4f7 893d 6d73 433c 8a9a 8a3d
000001d0: 9210 b7bc 098e 4eb8 9f19 dc3a 88e8 64bd
000001e0: 5421 283c 5fae 4fbd 5d86 333d c41f 993d
000001f0: 2d47 cdbc 4d9c 8ebc 376a cf3c 817e 23bb
-0.07902816 0.06192014 -0.054831814 -0.06023598 0.009302735 -0.083990864 -0.00013137217 -0.023155598
-0.029257473 -0.08664384 -0.06315643 0.062006574 -0.058183193 0.04524372 0.07296793 0.0022655723
0.05323265 -0.065162405 -0.06383595 0.060400456 0.05184263 0.014905802 -0.05603375 -0.039561912
0.0772774 0.09021764 -0.06834241 0.03436439 -0.054922376 -0.010805884 -0.005767244 -0.07216175
0.001496737 -0.022861967 0.069895804 -0.04495381 -0.06721911 0.010406418 0.08898222 0.079956986
0.03755033 -0.08703648 0.05257161 -0.019881748 -0.07190214 -0.036761303 -0.081126496 -0.03908873
0.033207197 0.07437333 -0.069691226 0.03210811 0.026022147 -0.057308692 -0.024378907 -0.06390688
-0.0604221 0.06779025 0.08548374 0.03540869 -0.019863367 -0.03940723 0.024824833 -0.084188126
-0.061988674 0.04210927 0.060986474 -0.006793523 -0.04112113 0.040650707 0.058032252 -0.08857624
-0.016147176 -0.08289446 -0.012952991 0.07429686 -0.07899734 -0.060030162 -0.015095341 0.031338613
0.08163001 0.03524031 0.06497183 0.076357 0.05102834 -0.04702255 -0.056052003 0.05802388
-0.014904615 -0.07072328 0.026898112 -0.06400012 0.019650642 0.08706671 0.07762465 -0.0033965544
0.007382689 0.011028621 -0.03497754 -0.056900363 0.0823017 -0.08067715 0.016088804 -0.040266033
0.030527176 -0.045692276 0.04878141 -0.051891524 -0.044213008 0.069501385 0.001771955 0.07517879
-0.059212998 0.06736687 0.011929375 0.06767757 -0.022346769 -4.9246508e-05 0.0016792304 -0.05588582
0.010261852 -0.050703403 0.04382931 0.07476762 -0.025058353 -0.017408514 0.025319202 -0.0024947228

blocks.0.to_v.weight f4 [128, 128]
00000000: cc4d 5fbc 6bb2 02bd 5cf4 963d a509 51bc
00000010: 7573 983d b33a 263d 3a3a 733d 88e8 f93b
00000020: 44c1 0bbd 959c 33bd f14a ac3d e61d 66bd
00000030: ba03 493c 73c0 86bd 1817 9bbd 0e43 ed39
00000040: a90e 4fbd a67d 5cbd 4c46 75bd e7b0 a53d
00000050: 92b4 07bc 0a6b 0d3c 5248 72bd 9fde 1bbd
00000060: 1e8a 693d 13f6 983d 9907 d63b a800 babd
00000070: 2290 9a3d 9940 83bd 2134 3fbd 169e 823d
00000080: 2f49 003d 0734 06bc 5c76 6f3d 4ce3 f13c
00000090: 5981 a13d be71 aa3d 9b19 f13c b627 7f3d
000000a0: daf2 a4bd 0cbe 61bd 1b25 8dbd 43cf b2bc
000000b0: 53f6 b33d 61b4 333c 5cc0 85bc 5450 563a
000000c0: 187e 26bd caef 80bc 92d4 a03d 51d0 22bd
000000d0: 7ced 093d 0754 4c3c e4ac be3d 2dbb 4bbd
000000e0: eb19 d9bc 8188 2ebd 6711 f3bb 57f1 43bd
000000f0: 3bb0 1bbd 63a1 2d3c 890b ac3c ebc5 533d
00000100: 6c4b 913c 9334 6fbd d464 a1bd 293a 8abd
00000110: f734 3f3b a8e2 64bb d4a0 8a3d fb0e 9c3d
00000120: f598 ac3d 6511 883d db39 8e3d c487 abb9
00000130: a5ab 443d 4578 3abc 9ce2 a5bd 905c d83c
00000140: 7463 a13d f2c5 e7bc 74e7 833d 2a41 49bd
00000150: ada6 77bd b5d0 903d 3e3b a2bd b71a 0a3d
00000160: 6854 393d ada0 6f3d e1a8 27bd 4ddf abbd
00000170: 7faa 9b3d 7593 53bc 86b8 603d 0297 443c
00000180: e1d8 7abd b8ef 8ebd ec27 793d 6d35 c6bd
00000190: 03e1 4bbd 278d 5e3d 53bc bb3c 3b94 253c
000001a0: 9c7f 76bd 58cd bfbd b187 6ebc 98bb 333d
000001b0: 7c9b 0c3d 6dd9 fd3c 0baa 983d e691 613c
000001c0: 6253 6ebc 0ed9 82bd 1a4e 073c a2fa 373d
000001d0: 3787 433c 43d8 7f3d bcd5 ab3d d893 283d
000001e0: 4038 aebd c4e7 b9bc 1964 573d 7880 943d
000001f0: ac66 5a3a 87cc 3cbd aee3 193d 1526 7e3c
00000200: 66e3 47bd 2a76 763d d7cb 9f3a ad1d c03d
00000210: cb6c 01bd 2835 3d3d 6475 7fbb 03c1 3bbd
00000220: 7e07 723d 663e 8cbd 03b8 2aba c832 a93c
00000230: c99c 8cbb cc92 3abd fa58 11bc 2870 543d
00000240: 07e3 92bc f817 febc 5ca4 2bbd bd21 69bd
00000250: 1384 2d3d 84ae babd 34b5 08bd f0c6 4c3b
00000260: e47a 9a3d 96e3 89bd 3d95 a53c 47d0 95bd
00000270: ffae 543d 0a64 723d 53e1 7e3d 689f edbc
00000280: 0866 65bd 5bf1 60bd 7e2b a4bc 869a fc3c
00000290: e8c7 c4bc 6858 ab3d ea59 9abd 341e 01bc
000002a0: a3d0 8ebd b9b4 a3bd 7555 96bd 3e6b 943c
000002b0: 0850 9dbd d445 53bc 2e17 46bd d41e 21bd
000002c0: 7399 8b3d 3b9a a9bc 9978 b4bd ab7c 933d
000002d0: aa98 9fbd f732 483b f343 6dbd 00a1 193d
000002e0: 0d5a 233d 5536 b3b9 d0fa 30bc d65b 5dbd
000002f0: 9e6b 44bd eb3b 573d 866d 4fbd 8839 a5bc
00000300: 588b 823d 5468 b9bd c88f 2c3c b325 50bc
00000310: 4cea 573d 976d 37bd cdfc a13d 68de 9f3c
00000320: 0236 8fbd 3b3b ff3b ab91 8eb9 0a10 7a3c
00000330: 4f60 26bd 37ef 273d e9fd 863b 81d6 4a3b
00000340: 1ece 61bd 61eb d33d 7d3f b5bd ad9f df3c
00000350: eb9d 89bd 336b 72bd d1d5 c33c d5a5 e63c
00000360: 814c 51bc 7b5e 113d bcd1 84bc fed1 dc3c
00000370: f4ba b3bd fc33 313d 1baf c8bb db52 8c3d
00000380: c5f7 b2bd 3484 cf3c 4da5 3abd 26ca c83c
00000390: a8a7 52bd 5967 a4bd f17a 1a3d 1eb2 133c
000003a0: b70c 93bd 542b 97bd 0401 83bd 9085 0e3c
000003b0: 2e46 5a3d 9ec8 4fbd 5aee 813d 87a4 6e3d
000003c0: 0e5e 253c fbba 80bd cf67 69bd 3786 edbc
000003d0: 9359 82bd 30c3 5d3c d7eb 873d cfe9 b53d
000003e0: b0d9 45bd 536d efbc c8e6 c33c c99f d6bc
000003f0: 60bf 583d eeed 99bd 76f2 543d f4fc 813c
-0.013629388 -0.031908434 0.073708266 -0.012758647 0.07443897 0.040583324 0.0593817 0.007626597
-0.03411986 -0.0438505 0.084127314 -0.056180857 0.012268955 -0.065796755 -0.07572764 0.00045254122
-0.05055109 -0.053830765 -0.059881493 0.08090382 -0.008282797 0.008631477 -0.059151 -0.038054105
0.057016484 0.0746881 0.0065316674 -0.090821564 0.075470224 -0.064088054 -0.046680573 0.06377809
0.031319793 -0.008191115 0.058462486 0.029527329 0.07885999 0.08322476 0.029431155 0.06229373
-0.08054133 -0.055112883 -0.06891843 -0.021827346 0.08787217 0.010968299 -0.016327076 0.0008175422
-0.040647596 -0.01573934 0.078530446 -0.039749447 0.03367375 0.012471206 0.0931032 -0.04973905
-0.026501616 -0.04261065 -0.007417846 -0.04783758 -0.038009863 0.01059756 0.021001594 0.05170242
0.01773616 -0.058399748 -0.078805596 -0.067493744 0.0029175857 -0.0034925137 0.06768957 0.07620045
0.08427612 0.06643943 0.06944629 -0.00032716815 0.048015255 -0.011381214 -0.08099863 0.026411325
0.07880297 -0.02829263 0.064406306 -0.04913441 -0.06046169 0.07071058 -0.07921456 0.033716884
0.04524651 0.05850284 -0.04093254 -0.083922006 0.07600879 -0.012913574 0.054863475 0.011998894
-0.061241988 -0.069793165 0.060829088 -0.09678159 -0.049775135 0.054333832 0.022916948 0.010106142
-0.06018029 -0.09365338 -0.014558719 0.043880075 0.03432797 0.030987466 0.07454308 0.013767695
-0.014546247 -0.06389056 0.008258367 0.044916756 0.011934093 0.062462103 0.08390376 0.04115662
-0.085068226 -0.022693522 0.052585695 0.07251066 0.00083313393 -0.04609349 0.037570648 0.015512009
-0.04880085 0.060171284 0.0012191486 0.0938066 -0.031597894 0.046193272 -0.0038979882 -0.045838367
0.059089176 -0.06847839 -0.0006512405 0.020654097 -0.004291151 -0.045550153 -0.008871311 0.051864773
-0.01793052 -0.031017289 -0.041904792 -0.05691694 0.042362284 -0.091153175 -0.033375934 0.0031246506
0.07542971 -0.06732862 0.020212764 -0.073151164 0.0519247 0.059177436 0.062226605 -0.029006675
-0.056005508 -0.054917675 -0.02004027 0.030835401 -0.024021104 0.083664715 -0.07536681 -0.007880736
-0.06973388 -0.079934545 -0.073405184 0.018117543 -0.076812804 -0.012895066 -0.04836195 -0.03933604
0.068163775 -0.020703426 -0.08812065 0.07201513 -0.0779279 0.0030547956 -0.05792613 0.037507057
0.0398808 -0.0003418202 -0.010801986 -0.05404266 -0.047954194 0.052547377 -0.05064156 -0.020169035
0.06374234 -0.09053102 0.010532327 -0.012704301 0.052713677 -0.044782247 0.07909546 0.019515231
-0.06992723 0.0077890432 -0.00027192882 0.015262613 -0.04061919 0.040999617 0.004119624 0.0030950608
-0.05512821 0.10347629 -0.0885 0.027297819 -0.067195736 -0.059184264 0.023905667 0.028155247
-0.012774588 0.035490494 -0.01621329 0.0269556 -0.08775893 0.043262467 -0.00612439 0.06851741
-0.087386645 0.025331594 -0.0455678 0.024510454 -0.05142942 -0.080275245 0.037714902 0.009014634
-0.071801595 -0.07381311 -0.06396678 0.008698836 0.053289585 -0.050728433 0.0634429 0.058262374
0.010093225 -0.06285664 -0.056983765 -0.028994663 -0.06364741 0.013535306 0.0663678 0.08882486
-0.048303306 -0.029226935 0.023913756 -0.026199238 0.052916884 -0.075160846 0.05198904 0.015867688

blocks.0.to_v.bias f4 [128]
00000000: dfa9 283c c52f 6c3c fad2 69bd 5507 703d
00000010: e62f 0d3d 636b 373d ea56 85bc 9f51 d33d
00000020: 4048 5c3c 699e 29bc 2d06 9bbd f632 4f3d
00000030: 8bf7 31bd c768 8e3d 09b2 50bd 950b 2f3d
00000040: 552f 653d 24a7 033c ee23 87bc 5702 0fbd
00000050: 346f 173c 9712 2bbd 9402 91bb b73a bf3c
00000060: 6f6e 943b 5194 ce3d c2ca 9dbd cb17 9b3d
00000070: d94a 0f3d 5c01 5fbd 88e5 a53d fdbd 37bd
00000080: d79a a9bd 5f36 00bc d884 4abb ddf4 79bd
00000090: a496 d93c 4ec6 3b3d 40c5 babd d44c 853d
000000a0: 3016 123d 975d 593d 7e48 ba3d ad24 d2bc
000000b0: 0157 11bd 7a76 8fbd eb66 15bd b7a9 d93c
000000c0: 43bf 8d3d 6afd 7d3d 948b 9e3d fc5b 99bc
000000d0: 0d2d bb3c f5a3 f43c 6726 943d c987 3a3d
000000e0: 9d60 fabc 8e22 88bd 1ed3 53bc 82bd 00bd
000000f0: 4888 b5bd 60ee 033d 36c0 aa3c 33f4 8a3d
00000100: 6a2d 293d c090 db3d ca46 b9bc 94fb 1ebd
00000110: 70ad a93c 2a0b 593d 8f92 013d 592a 933c
00000120: 2fa3 b03c 0a32 89bd 78df 9dbc 7ea1 493d
00000130: c9bf 343c a3f4 c4bd a1b6 49bc eaa9 12bc
00000140: 5292 5a3d 7967 1a3d 9545 04bd 8bfb 1d3d
00000150: 9a27 ef3c 9eae 8fbd c14f a1bc aabc 963c
00000160: 9ef9 843d bbfe 4dbc 5beb 653c 31e5 853c
00000170: 5a1c 93bd 7f10 c6bc 99e8 663c a344 193d
00000180: f717 89bb 778b 24bd ed09 d8bc c621 1a3d
00000190: dc90 d13c 0c75 61bc ee61 d43d ef69 debc
000001a0: d3e1 5dbd f3e2 e7bb ae44 783c effe d1bc
000001b0: 45b9 12ba c1f2 4ebc 678c 4bbd 683c c53d
000001c0: 26e3 993d 3b18 3abd f278 283c 29f8 193d
000001d0: 8b73 e9ba 475c 633b a4f3 4abc c32b a73c
000001e0: 0533 c0bd 2237 bb3d 4283 8e3d f3bd 983d
000001f0: 253b 84bd a47a 74bc eda3 673c 33a3 633c
0.010294407 0.014415686 -0.05708597 0.058600742 0.034469508 0.044780146 -0.016276795 0.10318302
0.01344496 -0.010352709 -0.07569537 0.05058571 -0.043448966 0.069535784 -0.050951038 0.042735655
0.055953342 0.008035455 -0.016496625 -0.03491434 0.0092428215 -0.041765776 -0.004425356 0.023343427
0.0045297663 0.10086883 -0.077046886 0.075728975 0.03498349 -0.054444656 0.0810042 -0.04485892
-0.082814865 -0.007825463 -0.0030901935 -0.061024535 0.026561089 0.045843415 -0.09119654 0.065087944
0.03566569 0.05306777 0.09095858 -0.025652254 -0.035483364 -0.070050195 -0.036475103 0.026570184
0.06921246 0.062009253 0.07741466 -0.01872062 0.02284863 0.029863337 0.07233887 0.04553965
-0.030563647 -0.06647216 -0.012928752 -0.03143073 -0.08863884 0.032209754 0.020843606 0.067848586
0.041303076 0.10720968 -0.022616763 -0.038814142 0.020712584 0.052989163 0.03163391 0.017964529
0.021562187 -0.06698997 -0.019271597 0.049226277 0.011032053 -0.09616973 -0.0123116085 -0.0089516435
0.0533622 0.037696335 -0.03229292 0.03856997 0.029193688 -0.070157275 -0.01969135 0.018400509
0.06492923 -0.0125729395 0.014033164 0.016344639 -0.07183142 -0.024177788 0.014093542 0.037418973
-0.004183765 -0.040172067 -0.02637192 0.037629865 0.02558177 -0.013760816 0.10370241 -0.027150122
-0.05417044 -0.007076615 0.015153093 -0.025634257 -0.00055970653 -0.012631119 -0.049694445 0.09630662
0.07514028 -0.045433264 0.010282742 0.03759018 -0.0017810924 0.0034692453 -0.01238719 0.02040661
-0.09384731 0.09141375 0.06958629 0.07458105 -0.064565934 -0.014921818 0.014138204 0.01389389
